traced_walking_actor_model.pt (torch, 715557 bytes, 8 tensors)

weight f4 [512, 21]
000000 a1 dc 0b be 8d d2 20 be 99 e8 e1 be 9d 5d e5 be
       -0.13658382 -0.15705319 -0.4412277 -0.44797984
000010 d8 c2 73 be 9a 2d 04 bd 18 6e b4 3d d2 6b 36 be
       -0.23804796 -0.03227005 0.08810061 -0.17814568
000020 a9 f3 19 bc e9 53 3f be 9c 60 87 be 8d 6f 09 be
       -0.009396472 -0.18684353 -0.26440895 -0.1342146
000030 36 9f ec bc ea 37 99 3e c7 17 11 3e f8 88 4c 3e
       -0.028884511 0.29925472 0.14169227 0.19974124
000040 5e 08 b9 3d 40 2b 5e bd fb cc 19 be 0e 5c 2e 3e
       0.09034799 -0.054240465 -0.150196 0.17027304
000050 59 fe 4e be 1c d9 c7 bd a1 01 8f be eb 1c 31 be
       -0.20214213 -0.09758207 -0.2793093 -0.17296188
000060 7f e2 e9 be f1 ea aa 3c bf 2e 2f be 46 ef 7b be
       -0.45680615 0.020863982 -0.17107676 -0.24602994
000070 43 68 bd be f9 e8 d8 3d a2 f1 71 be 01 59 dc bc
       -0.36993608 0.10591311 -0.23627332 -0.02689791
000080 a5 ea 9a 3e 99 ca 9c be 84 bc 6a 3e e7 40 0d 3e
       0.30257145 -0.3062332 0.22923476 0.1379429
000090 f5 fb 54 3d e4 e4 1a 3d 65 7e b9 bc 27 fc 8b bd
       0.051998097 0.037815943 -0.022643277 -0.068352036
0000a0 f7 a0 0b 3c 99 3c 37 be ca 82 85 3d d1 95 8e 3d
       0.008522264 -0.1789421 0.06519087 0.06962169
0000b0 f2 8b 66 be d9 83 02 bf b7 e9 48 bf 78 d7 1a 3f
       -0.22514322 -0.50982434 -0.7848162 0.6048503
0000c0 64 e5 18 be ef 3b 24 be 95 6f 0e bc 4a aa c9 be
       -0.14931256 -0.16038488 -0.008693595 -0.39387733
0000d0 b3 e7 47 be 70 aa 90 3d 32 b1 b7 bd 06 2e 63 3e
       -0.1952198 0.070637584 -0.08969344 0.22185525
0000e0 19 79 70 3d d4 c4 67 be 1e f9 a3 3d df 72 a3 bd
       0.058709238 -0.22633678 0.080065 -0.07980894
0000f0 0d 3e e8 bd 5e 0b ee bc 11 e7 5a 3d 42 80 69 3d
       -0.1133996 -0.029058155 0.05344302 0.05700708
000100 96 c3 5b be d6 c4 2c 3d 59 91 f8 3d f4 92 92 be
       -0.21461329 0.042179905 0.12137098 -0.2862774
000110 30 95 cd bd 6a 99 93 be b3 4e 5c 3c 76 37 f3 3d
       -0.10038221 -0.28827983 0.013446498 0.11875813
000120 29 8d 1d be e1 5f 96 be 07 9d 09 3f ef a7 5d be
       -0.1538588 -0.29370025 0.5375523 -0.21646093
000130 bc f9 cf bc dc 09 1a be d9 33 7c bc 8f 98 01 3e
       -0.025387637 -0.15042824 -0.015393221 0.12655853
000140 ec 35 59 be c4 71 dc bd 71 ad 5e 3d 69 c9 53 3d
       -0.21211976 -0.107638866 0.054364625 0.05170575
000150 39 f9 83 3c 89 d1 c4 3e 49 df c2 bd 2f ad 00 3f
       0.01611005 0.38441113 -0.095152445 0.5026426
000160 38 d5 c4 be b0 2f c1 3d 63 94 6b 3e 74 4f f5 bd
       -0.38443923 0.09432924 0.23005824 -0.11978045
000170 28 f6 20 be 67 cd 94 3d ba 27 2d be 88 51 18 bd
       -0.15718901 0.0726574 -0.16909686 -0.03718713
000180 e1 d8 dc bc 9d 3e 0e 3e c3 0e 2f be 11 15 4e 3d
       -0.026958885 0.13891073 -0.17095475 0.05031306
000190 6c 37 e4 bc 06 f9 68 3c 61 e7 2a be d2 3b 5c be
       -0.027858458 0.014219528 -0.16689827 -0.21507195
0001a0 b3 54 0a 3d 96 75 24 3d e5 67 31 be 29 a3 88 bd
       0.03377218 0.0401512 -0.17324789 -0.06671745
0001b0 ad 29 c8 be f6 a7 93 3e f0 63 67 be c8 f1 11 be
       -0.39094296 0.28839082 -0.22596717 -0.14252388
0001c0 15 f8 55 3e 35 9f be bd 70 e8 9c be 4e a0 c7 be
       0.20895417 -0.0930771 -0.30646086 -0.3898949
0001d0 5b 3c 0e 3e e3 fe c1 bd 08 b6 eb 3d 44 59 6c 3e
       0.13890211 -0.09472444 0.11509329 0.23080927
0001e0 45 72 65 be 06 3f 44 3e 54 48 36 3e 78 00 5e be
       -0.22406872 0.19164667 0.17801028 -0.21679866
0001f0 7c a9 34 3d a0 6b a9 bc 5a 6d 2f 3c bc c8 35 3e
       0.044106945 -0.020681202 0.010707224 0.17752355
000200 50 f3 25 3e 42 7b 21 3f 27 6a 4f be f8 59 8b be
       0.16206098 0.630787 -0.20255338 -0.27217078
000210 6a a5 b1 3d aa 5e d6 3d 27 5c 71 be aa 03 b8 bd
       0.08674128 0.104672745 -0.2357031 -0.08985074
000220 56 e8 ac bb 1f 2a 51 be 3d 24 cc bd 5b 37 9b be
       -0.00527672 -0.20426224 -0.099678494 -0.3031567
000230 ee 51 ad 3e b9 d0 0a be 6b 72 8f bc 5e c5 17 3d
       0.3385157 -0.13556184 -0.017510613 0.03705346
000240 9e b4 11 3e 10 7b 1a be ee 6c 5a be 4b e1 9e bd
       0.14229056 -0.15086007 -0.21330616 -0.07757815
000250 e9 6d 71 bd 66 62 21 be 95 74 87 be d8 0a 90 3d
       -0.05894271 -0.15760192 -0.26456133 0.07033318
000260 b0 5b 9f be 0c 99 5c 3e 78 d9 0f 3e 53 6d cd be
       -0.3112464 0.21542758 0.14047801 -0.4012247
000270 7a 7b 14 3e 5d fc 67 3e c8 57 61 3d 63 66 74 bd
       0.14500228 0.22654863 0.055015355 -0.059667956
000280 af 8a 12 be 7c d0 b3 3d 6e b0 0f be c6 8b 0a 3d
       -0.14310716 0.087799996 -0.14032146 0.033824705
000290 0e a6 97 bd cc 5f c4 3d 9d 22 2f 3e 4f d9 17 bd
       -0.07404719 0.09588584 0.17103048 -0.037072476
0002a0 da e4 fb bd 65 55 9c be b7 eb 2a 3e fe c3 70 bf
       -0.12299509 -0.305339 0.1669148 -0.9404906
0002b0 8d c0 d9 3d 91 d2 86 3e a1 27 0f 3e 20 50 c1 3c
       0.10632429 0.26332524 0.13979961 0.023597777
0002c0 34 bb 09 bf e9 f6 63 be a5 d7 36 3e 7b 63 b0 be
       -0.53801274 -0.22262157 0.178557 -0.34450898
0002d0 43 d9 a0 be 7b 59 70 bd 03 4a 11 3e 07 c3 64 3c
       -0.31415758 -0.058679085 0.1418839 0.013962514
0002e0 f8 6d 66 3c 0e 9b 08 bc 0a 47 34 be 8d f1 04 be
       0.0140643045 -0.008337749 -0.17605224 -0.1298277
0002f0 69 7f f5 3b b5 de 06 3d cd 7d 02 3e a0 58 cf bc
       0.007491995 0.032927234 0.12743302 -0.025310814
000300 1d 96 6c 3e fe d0 ec 3e c4 6d e1 be 70 5d 7c 3d
       0.23104139 0.46253198 -0.44029057 0.061612546
000310 21 79 a1 3e 86 c5 af be e6 bf a0 3e 09 aa dd 3e
       0.31537727 -0.34330386 0.31396407 0.4329379
000320 05 a4 0a 3e 70 6c 3e 3e 0d 05 4e be d4 6d 42 bc
       0.13539131 0.18596053 -0.20119114 -0.011867005
000330 d3 90 12 3e 53 fe 42 3d cb 39 f2 bd f8 51 f4 3d
       0.14313059 0.047605824 -0.118274294 0.11929697
000340 40 47 a1 3d 47 44 25 be ca 08 8e bc ef 16 9b 3d
       0.07874918 -0.16139327 -0.017338175 0.075727336
000350 b0 85 2d be 26 b5 11 bf a8 0a da be fa 8c 49 3e
       -0.16945529 -0.56917036 -0.42586255 0.19682685
000360 4d 3e 1f 3e 10 66 40 3c 94 64 bb 3e a9 2e 11 3e
       0.1555111 0.011743084 0.36600173 0.14177956
000370 ca 12 be bd 58 25 10 3d 41 ed ac be a6 9e 92 bc
       -0.092809275 0.035191864 -0.3377476 -0.017897915
000380 6e 77 2c bd b2 70 7e be 0c 10 1e be 21 06 28 be
       -0.042106085 -0.24847677 -0.15435809 -0.16408588
000390 fb b6 06 be ae b7 39 3d 5f 5a 57 3e 73 f3 7a 3d
       -0.13155739 0.045341186 0.21030568 0.061267328
0003a0 58 58 a9 be b1 49 29 be 72 88 99 be be bd c9 3e
       -0.33075213 -0.16532017 -0.29986912 0.39402574
0003b0 60 36 0a bd 44 53 9f be 8d aa 37 bd 12 86 3d 3e
       -0.033743262 -0.31118214 -0.044840384 0.18508175
0003c0 d4 f1 88 bd b4 d0 02 bb f4 a2 b8 3e c9 45 b3 be
       -0.0668675 -0.0019960823 0.36061823 -0.3501418
0003d0 ff 5b 3f bc 78 72 61 bd 52 89 4b 3e 35 29 22 3e
       -0.011679648 -0.055040807 0.19876602 0.15836032
0003e0 a9 3f e4 3c 57 d5 26 be 0f 4b 97 3b c2 07 4b 3e
       0.027862387 -0.1629232 0.004617102 0.19827178
0003f0 81 2b 1b 3e eb 71 e4 3d 2d c9 62 3d 89 cf c6 3e
       0.15153314 0.11154541 0.055367637 0.38830212

bias f4 [512]
000000 ee ad 8f 3d 7b 38 4f 3d e8 cc 6d 3d 18 fb 31 3d
       0.07015596 0.050590973 0.058056742 0.043452352
000010 69 b4 9f bc c2 54 d6 3d 98 f6 51 3d fe f8 84 bd
       -0.019495206 0.10465385 0.05126056 -0.06492804
000020 2b 29 e8 3d 4b 4a 4a be 71 66 18 3e d5 dd 86 bd
       0.11335977 -0.19754903 0.14882828 -0.0658528
000030 0b 82 c5 3c 30 9c 0a 3e 6e 2f 1d bd d3 7e ca bc
       0.02410986 0.13536143 -0.03837531 -0.024718678
000040 0b 0b f5 3d 3b c9 4a bd 62 a5 00 3e e3 65 80 bd
       0.11964997 -0.049508315 0.12563089 -0.06269433
000050 c5 9e 87 bd 95 10 7c bd 68 55 90 bd 92 c9 b9 bd
       -0.0662208 -0.06153925 -0.0704754 -0.090716496
000060 f9 6f 4b 3e ff 7c 5e 3d 1f cb ba 3c f1 f1 91 3d
       0.19866933 0.054318424 0.022801934 0.07126225
000070 23 82 dc bd 12 fa 69 be d6 02 fc bb 3c cf d1 3d
       -0.10767009 -0.228493 -0.0076907678 0.10244605
000080 30 0b 0b 3e 9d 5c ad bd 5c 8e a3 3d 7c b9 17 bc
       0.13578486 -0.0846493 0.07986137 -0.0092605315
000090 86 32 d5 3d f2 ac ab bd 1e 99 15 be 36 33 83 3d
       0.10410027 -0.08382596 -0.14609191 0.06406252
0000a0 7f 64 1e be ed 63 21 bc c8 5c e8 3c a5 94 8e 3c
       -0.15468024 -0.009850484 0.028364554 0.017404864
0000b0 a2 72 af 3d 55 ec 9f 3d 7c 8b cc 3b 55 7f 5c bd
       0.08566786 0.07808749 0.006242214 -0.05383237
0000c0 2b 1b 25 3e 6c 6a a0 3d 12 8f 15 bb 10 cb 8b bb
       0.16123645 0.07832798 -0.0022820872 -0.0042661503
0000d0 85 68 8b bd a0 25 4b bd a4 bc 13 3e 7a 4c 96 bc
       -0.06807045 -0.04959643 0.1442743 -0.018347014
0000e0 b7 39 f8 3d f9 33 4b bd 72 83 09 3e c4 8e 09 3d
       0.12120383 -0.04961011 0.13429049 0.033583418
0000f0 3c f8 40 3d 4b dc 0f bd ab 20 7a 3d 45 bc 09 bb
       0.047111735 -0.035122197 0.06106631 -0.0021016758
000100 b5 09 2e bd 1d 0f 55 3c 2d 04 fe 3c 10 6d 90 3d
       -0.042489726 0.013004092 0.03100785 0.07052052
000110 5a 0c 76 3d 1b 38 d2 3d 9e 36 cb 3d 66 ff 47 3c
       0.060070373 0.102646075 0.09922527 0.012206888
000120 27 b7 b0 bd 41 9b ac 3d 8b 36 88 3d 69 84 6b bd
       -0.086286835 0.0842805 0.06651028 -0.057499323
000130 ff 6a ca 3d 7d f4 93 ba 81 13 b2 bc 7f 98 a9 3c
       0.09883689 -0.0011288073 -0.021737816 0.020702599
000140 12 14 71 bd d3 9e 41 3e 3f 77 19 bc 0f dd 5c bd
       -0.05885703 0.18908243 -0.009366809 -0.053921755
000150 9e b9 20 3e c7 51 42 3d d7 2a 33 bd 40 fd 3a be
       0.15695807 0.04744127 -0.043742027 -0.1826067
000160 41 0e 89 3d 89 8e 24 bd 7c d5 41 3e f5 ae 82 3e
       0.06692172 -0.040174995 0.18929094 0.25524107
000170 6d bf 61 bd 59 fd fa bd 61 49 40 3e 84 10 ba bb
       -0.0551142 -0.122553535 0.18777992 -0.0056782383
000180 f6 91 8e 3d 24 0f 4a bb 97 e4 b8 bc fb 85 33 be
       0.069614336 -0.0030831778 -0.022569938 -0.17531578
000190 21 54 c2 3c 26 4a 6d bd a6 97 08 be fb c9 15 3e
       0.023721756 -0.05793204 -0.133391 0.1462783
0001a0 6d 4e 37 be 88 05 88 bd 88 e0 4b 3e 51 98 dd bc
       -0.17901011 -0.0664168 0.1990987 -0.02705017
0001b0 40 1c 80 bd a8 d0 32 bd c0 37 9f 3d c7 3c 42 bc
       -0.06255388 -0.04365602 0.07774305 -0.011855311
0001c0 81 b1 26 bd d4 4d 32 3e 66 01 a6 bd 2d b3 37 3e
       -0.040696625 0.17412502 -0.081057355 0.17939444
0001d0 83 40 86 3d fe 4e 66 bd 7f 2b 36 bd 21 bb 36 be
       0.065552734 -0.056227677 -0.044475075 -0.17844822
0001e0 b7 f9 7c 3d b5 d1 ad 3d 5d 9e 6d bd 19 29 e1 bd
       0.061761584 0.08487264 -0.058012355 -0.10994167
0001f0 f2 fd 0f 3d f2 ac 57 3e a9 89 2b be 04 c7 9a 3d
       0.03515429 0.21062067 -0.16751732 0.075574905
000200 42 df cc 3d 99 c8 4b bd 8d 0b 73 bd 6c b3 26 bd
       0.100035205 -0.04975185 -0.059337188 -0.040698454
000210 9a 00 ab 3a 2b d5 98 bd 40 f2 21 be 9e cf e1 bc
       0.0013046444 -0.074625336 -0.15815067 -0.02756482
000220 7c 67 e5 bd ff 9f 1a 3b e7 c4 6f 3c 2f 4b 3f 3c
       -0.11201379 0.00235939 0.0146343475 0.01167564
000230 7a 7b 12 bb 37 47 a9 3d bf fb a4 3c 07 5e 2f bd
       -0.002235143 0.08265536 0.020139573 -0.04281428
000240 10 39 8d 3d 3c d3 8c b9 05 d6 5a 3c de 4a 61 3d
       0.068956494 -0.00026860263 0.01335669 0.05500304
000250 bc 10 c0 3d cb e6 cd 3d 18 c3 1b 3e f6 f9 1e 3e
       0.09378192 0.10053786 0.15211141 0.1552504
000260 ce d7 c1 bd d3 e4 bf 3d ac 24 30 bd e2 36 2a be
       -0.094649896 0.09369817 -0.043003723 -0.16622499
000270 09 9f 30 be 41 2a 03 3e 8b 07 69 bd 0f d2 f3 3d
       -0.17248167 0.12809087 -0.05689196 0.119053
000280 b4 25 d1 bc d0 4d 23 3e d5 32 76 bd ff 00 f6 ba
       -0.025530674 0.15947652 -0.06010707 -0.0018768607
000290 e9 36 97 bd 34 8c a4 bd 20 14 3a be 01 78 cf bd
       -0.0738352 -0.08034554 -0.1817174 -0.10130311
0002a0 d4 02 16 3e 01 51 87 3c d1 5d b1 3d e1 db 0c be
       0.14649516 0.016518118 0.08660472 -0.13755752
0002b0 b1 ee 78 3b f8 43 0c 3e 66 c0 d6 3c 4d 9d 15 3e
       0.0037984068 0.13697803 0.02621479 0.14610787
0002c0 b6 87 4d bb 99 b0 06 3e a6 a6 19 be f9 a4 f2 3c
       -0.0031361408 0.13153304 -0.15004978 0.02961968
0002d0 e3 50 a6 3c ae 9d c5 bd f7 ff 92 bd 02 b3 a4 3d
       0.020302242 -0.09649216 -0.07177728 0.080419555
0002e0 c4 2f 2b 3e 9f f0 8f 3e 9e 37 6f bb da 74 0d 3e
       0.1671744 0.28113267 -0.0036501656 0.13814107
0002f0 f4 8c 57 bd 51 c0 08 bd 9b 35 c6 bd e4 90 fb bd
       -0.052624658 -0.033386532 -0.09678193 -0.12283495
000300 9b 3a 86 bc 75 ed e2 3d a8 b5 3e 3e 60 5b f3 3c
       -0.016385367 0.110804476 0.18623984 0.029706657
000310 2c b7 d3 3d 79 43 4f bb bb c4 ce 3d bd f8 11 3e
       0.10337672 -0.003162591 0.10096117 0.14255042
000320 79 67 81 bc 11 f3 e7 3d 7b bb 05 3e 9b 02 6c bd
       -0.01579641 0.11325658 0.130598 -0.057619672
000330 db af 2a 3e eb 81 fa 3d f2 52 5a bd 7e 79 b0 bd
       0.16668646 0.12231811 -0.05330176 -0.08616923
000340 20 c4 93 bc 34 02 85 3c 8c 08 1c be a7 fb 4a be
       -0.018037856 0.016236402 -0.15237635 -0.1982256
000350 3f 88 b4 bd 6a 53 0f bd c0 e9 cb 3d ea 70 8e 3d
       -0.088150494 -0.03499166 0.09956694 0.069551304
000360 62 7c 7d bd 85 87 ee 3d a1 c1 be 3c 43 f2 24 be
       -0.0618862 0.11646942 0.023285689 -0.1610804
000370 55 68 2f be b4 5e 8b bc 96 84 a2 bd e7 0f 07 3e
       -0.17129643 -0.017012931 -0.07935445 0.1318966
000380 3a f3 25 be 4d 84 e7 3d d0 93 18 3d de 9a 64 bd
       -0.16206065 0.11304531 0.03725034 -0.055811755
000390 73 74 58 bc 84 1c 5a 3d 17 ec 23 3d 22 3e c2 3c
       -0.013211357 0.05324985 0.040020075 0.023711268
0003a0 6d 4c 15 3d 33 5b 58 bd d5 4b a8 3d 73 7e 04 be
       0.03644984 -0.05282135 0.08217589 -0.12938862
0003b0 e4 9b 29 3e 3f 0b a0 3d 7a 2c 8d bd 63 8a 06 3b
       0.16563374 0.07814645 -0.06893249 0.0020529262
0003c0 18 4c 56 3e 7b ac 68 bc 86 fe 84 3c fd 49 8d bc
       0.20927465 -0.014201279 0.016234647 -0.017247194
0003d0 f0 36 1d bd 86 a1 db 3d 4a e9 42 bc 54 7e 63 3e
       -0.03838247 0.107241675 -0.011896441 0.22216159
0003e0 c6 fa dc bd 6e 9b ba bb b7 01 84 3c f1 3c 75 3e
       -0.10790019 -0.005694798 0.016114099 0.23949029
0003f0 36 a9 2e 3e 0f c6 c1 3c 89 e3 35 bd 9d 03 41 3e
       0.17056736 0.023654012 -0.044406448 0.18849035

weight f4 [256, 512]
000000 bf 9c a2 bd dd 09 e2 3e 85 70 40 3e 51 fc a0 3e
       -0.07940053 0.4414815 0.18792923 0.31442502
000010 fa d8 a1 bd 16 f7 89 3e b5 53 03 3c c0 4e 07 3e
       -0.07902713 0.26946324 0.008015563 0.13213634
000020 8e b4 0e 3e f2 54 0c be 43 c2 90 3e 81 84 87 3e
       0.13936064 -0.13704279 0.2827321 0.2646828
000030 0d de 40 bd db 8c 09 3d 52 6c 60 be 8f 0b f7 3d
       -0.047086764 0.033581596 -0.21916321 0.120627515
000040 1e 17 80 3a 24 15 87 bd 72 2b 0f be 01 c0 9d 3c
       0.0009772514 -0.06595829 -0.13981417 0.019256594
000050 b2 60 06 be 8a 62 83 bd 66 df 0d be f4 41 a6 3c
       -0.13122824 -0.06415279 -0.13854751 0.02029512
000060 b0 2d fa 3d c7 fe 96 3d f6 09 30 be 95 88 12 3e
       0.122157454 0.07372814 -0.171913 0.14309914
000070 68 73 15 bd 3b 40 07 3d 03 67 8a bd d5 6f 50 3e
       -0.036487013 0.03302024 -0.06757929 0.2035516
000080 b3 a2 9e 3d 2c 67 cb 3c a2 d2 5b 3e c2 bf 08 3d
       0.07745876 0.02482947 0.21467069 0.033386
000090 90 3d 20 3c 9c e2 75 bd 5f 0c 32 3d d3 b2 3f bc
       0.009780303 -0.060030565 0.04346883 -0.01170035
0000a0 14 cf a4 bd eb 84 8c bd 2e 95 e9 3d 5c df 80 3d
       -0.080473095 -0.068612896 0.11405407 0.062926024
0000b0 b4 9a 92 bd 4a ea b6 bc 3f cb c0 3d 16 76 4f 3d
       -0.071584135 -0.022328515 0.09413766 0.050649725
0000c0 e8 23 32 3d a5 2e 90 bd 11 b0 fb bc 3f 83 32 be
       0.043491274 -0.07040147 -0.030723603 -0.17432879
0000d0 c5 c4 c7 3d 2a 71 93 be ae f5 b0 3c d5 7c 89 bc
       0.09754328 -0.28797275 0.021601524 -0.016783157
0000e0 95 96 1b be 25 4e 03 3d ce 2d 9a bd ef 05 30 3e
       -0.15194161 0.032056946 -0.07528268 0.17189763
0000f0 7b da bb be 8f 8e 28 3d 7e 4f 5f 3d 75 4f 6d be
       -0.36690125 0.04115158 0.05451917 -0.23174842
000100 e7 61 b2 3d c6 b1 4e 3e ac 52 53 3c f0 75 2a bd
       0.0871008 0.20185003 0.0128981285 -0.04161638
000110 86 27 84 3e 1f e1 8f 3b 86 a2 7b 3d a7 56 f2 3d
       0.25811404 0.00439085 0.06143429 0.11832934
000120 5d 67 9d bd 9a df c7 bd 36 cd 1f 3d 95 a3 64 3e
       -0.076857306 -0.097594455 0.039014064 0.22328027
000130 5d 70 33 bc 1e 09 c5 bd eb 09 56 bd f2 7a 64 bc
       -0.010952082 -0.096208796 -0.052255552 -0.013945328
000140 8f 56 80 bc 07 4e d6 3d 3d a3 ce bd 5e 1e 56 3d
       -0.015666274 0.10464101 -0.10089729 0.052275054
000150 52 55 a3 3d 5c c0 2b bd 08 45 58 3e ad b1 9d 3d
       0.07975258 -0.041931495 0.21120083 0.076999046
000160 c3 5e d4 bd d1 03 81 3e 63 b2 82 bd e7 3e c8 3d
       -0.10369637 0.25198224 -0.06381681 0.09777623
000170 23 79 1e bd 24 a7 ce bb 1d 91 57 3e de 4a 76 bd
       -0.038689744 -0.006306546 0.2105145 -0.060129993
000180 e7 1d b1 3c 87 4a 1f be c9 67 85 3c 6e 1f 85 bd
       0.021620704 -0.15555774 0.01628484 -0.06500135
000190 f6 e1 da bc 09 2b ab 3d 9f 49 8b 3d 55 08 ec 3d
       -0.026719075 0.08357818 0.068011515 0.11525027
0001a0 17 75 ce be 01 21 1f 3b 1b 98 37 3e 3e b8 4d 3d
       -0.40323707 0.0024281146 0.17929117 0.050224535
0001b0 b2 42 04 bc e7 04 36 bc ff d6 13 bc c4 1f d7 bd
       -0.008072542 -0.011109567 -0.009023427 -0.10504106
0001c0 e1 1a 52 bb 81 77 1d be 0a 1f 8d 3d aa 43 4d 3d
       -0.0032059478 -0.15377618 0.06890686 0.050113358
0001d0 02 8a e1 3d 29 6d 2a be da 53 10 be 3d fd a4 bd
       0.11012651 -0.16643204 -0.14094487 -0.08056114
0001e0 96 74 c9 bd b3 aa e8 3d 3c 84 6b 3c 47 04 82 3c
       -0.0983669 0.11360683 0.014374789 0.01587118
0001f0 a7 44 97 bd a6 26 40 3d 02 74 fc 3b 26 44 b6 bd
       -0.07386141 0.046911858 0.007704259 -0.08899717
000200 df 9e 01 be c2 36 9d 3e 8e cc 5a be 2f 98 28 be
       -0.12658261 0.3070584 -0.21367094 -0.16464303
000210 20 4c ad 3d 48 19 92 bc 20 d4 2d be 1c 3b e6 bd
       0.08461785 -0.01783432 -0.1697545 -0.11241743
000220 11 3a 80 3e 0f 55 3d bd 79 a8 f5 bc 4d 93 11 bd
       0.250443 -0.046223696 -0.02998756 -0.035540868
000230 41 4f a6 bd 9c a0 56 be e2 68 7b 3c 51 3e 99 3e
       -0.08120585 -0.20959705 0.01534483 0.29930356
000240 4d d8 3d be 49 f9 a3 3e 73 e2 60 3d 4f 03 d6 bd
       -0.18539543 0.32026127 0.05490346 -0.1044985
000250 cb 06 b1 3d ed a0 15 3e c7 3b 78 bc 99 80 a1 3e
       0.08643874 0.1461217 -0.015150971 0.31543425
000260 ca cf 16 3e be 53 81 3e 67 30 61 3e 60 83 80 3d
       0.14727703 0.25259203 0.2199112 0.06275058
000270 58 59 c8 3c 2a 57 89 3e b6 2a 63 bd 2c 00 54 bd
       0.024456665 0.26824313 -0.055460654 -0.051757976
000280 e5 aa fa 3d c8 de b0 3b 91 ba 9e 3d e3 b8 4d bd
       0.12239627 0.0053976513 0.077504285 -0.05022515
000290 8f 17 38 3e b5 2e a1 bd 35 85 86 be 9c 6d 93 be
       0.17977737 -0.07870237 -0.26273504 -0.28794563
0002a0 c4 51 9b bc ba a7 44 be 2e 21 96 bd 22 db 99 3c
       -0.018959887 -0.19204608 -0.07330547 0.018781248
0002b0 8a 1b 15 bd 36 0c fb bd b4 28 5c 3e f9 9b f1 bc
       -0.036403216 -0.122581884 0.21499902 -0.029493319
0002c0 1e 89 3a be f7 b8 72 bc eb 48 e1 3d 1d f1 c2 3d
       -0.18216369 -0.014814607 0.11000236 0.09518645
0002d0 3e 84 2f 3e 2a 72 4c bd 2c ba f0 bc 22 9f 39 bd
       0.1714029 -0.049913563 -0.029385649 -0.045317777
0002e0 ad 00 0e bd 16 ef 25 be 79 d9 e1 bc 26 d8 30 bd
       -0.034668613 -0.16204485 -0.02756952 -0.043174885
0002f0 2f 44 99 3c 4e 8b b5 bd 32 65 0a be 21 2b 1f 3d
       0.01870927 -0.08864461 -0.13515165 0.03885949
000300 63 00 00 3c 71 34 48 3d 1c 7b aa be d5 d6 04 3e
       0.007812592 0.048878137 -0.3329705 0.12972577
000310 3e f2 49 be a4 80 2f be dd a1 1e 3e 19 bf ee bc
       -0.19721314 -0.17138916 0.15491433 -0.029143857
000320 c9 99 9a be 78 d0 b3 3d 95 9b 0a 3e 2a f4 08 be
       -0.30195454 0.08779997 0.13535912 -0.13374391
000330 5a 2d 4d be a1 14 2a 3c fc f3 54 3e 05 14 d3 bd
       -0.20036831 0.010380895 0.20796198 -0.10306553
000340 f0 92 5c 3e e9 ad ce bd 6e a0 5f be b4 b6 f6 3d
       0.21540427 -0.100917645 -0.21838543 0.120465666
000350 42 2d d0 3d b4 18 04 3e 4a 8f 4f 3e cd 88 f4 bd
       0.10164882 0.12900048 0.20269504 -0.11940155
000360 f6 d3 a2 bd b8 0e 30 3e 65 0a 4b 3e 78 a7 e0 3c
       -0.079505846 0.17193115 0.19828184 0.027423605
000370 a9 81 40 3e ae fa 84 3e 5e c8 85 3e 37 05 22 3e
       0.18799461 0.25972503 0.2612943 0.15822302
000380 8d df e7 bb 90 3b 40 3e 85 22 fd be 49 90 21 be
       -0.00707621 0.18772721 -0.494404 -0.15777697
000390 a7 42 f6 3d f7 17 0e be 23 e2 48 3b 5b ae 8d be
       0.12024432 -0.1387633 0.0030652366 -0.27672085
0003a0 50 fb 1d 3e 5b f6 07 bd 6e ab cb 3e b9 0e ce bc
       0.154279 -0.033193927 0.39779228 -0.025153505
0003b0 4c 78 6c 3e a0 ac 39 3d 7a 28 63 be b0 99 e4 3b
       0.23092765 0.045330644 -0.2218341 0.006976329
0003c0 6a 19 c7 3c d1 b8 a1 bd 7a f8 bb 3e 3c d1 91 3b
       0.02430411 -0.07896579 0.3671301 0.0044499915
0003d0 dd fb 94 3c 83 b9 c1 bc e8 09 73 be a5 1b 06 3e
       0.018186504 -0.02364803 -0.23734248 0.13096483
0003e0 7c 77 32 be 95 0e 3b 3d ac 23 a1 3d ed a1 4d 3e
       -0.17428392 0.045668203 0.07868132 0.20081301
0003f0 40 4e e7 bc fa b8 9c bd 21 22 3b be ea 48 f4 3c
       -0.028235555 -0.07652469 -0.18274738 0.029819924

bias f4 [256]
000000 f6 f0 86 bc ac d2 36 3e f9 93 d6 3b 0f 62 45 3c
       -0.016472321 0.17853802 0.0065484014 0.012047305
000010 2b c5 b9 3c 47 a4 47 3c 85 b1 62 3d 77 e5 1a be
       0.022677025 0.012185163 0.055345077 -0.15126596
000020 7b ec 53 3d 2a 5b ab bc d5 26 e2 bd 6b ae 58 3e
       0.051739197 -0.020917494 -0.11042563 0.21160285
000030 e5 54 86 bd df 03 ae 3d e2 2d 03 be 4e 54 b0 bb
       -0.06559161 0.08496832 -0.12810472 -0.0053811437
000040 57 c0 71 3e 73 6f bc 3d 2c 9a b9 3d 0c 0a 98 bd
       0.23608528 0.09200945 0.09062609 -0.07423791
000050 71 59 4d 3d 94 25 19 3e 87 8e 4e 3d 93 27 43 bd
       0.050134126 0.14955741 0.050428893 -0.047645163
000060 9d 84 90 3e ba 79 1e bc eb fb 78 3b 15 60 f2 bd
       0.28226176 -0.009672577 0.0037991952 -0.118347324
000070 71 58 91 3b f7 e4 a9 3c 3b 27 06 3e ab d6 ea bd
       0.004435592 0.020739062 0.13100903 -0.11466726
000080 ec a4 88 3d 7c 79 5a 3e 7a 70 b5 3c 69 74 d6 3d
       0.06672081 0.21335405 0.02214836 0.10471422
000090 c8 cc 01 3e 0d 5f 3f bd f2 a4 d4 3c f6 49 03 be
       0.12675774 -0.046721507 0.025957558 -0.12821183
0000a0 0b ff 64 be e7 f6 3b bd e0 8c bd 3d 2b 38 11 3e
       -0.22362916 -0.04588976 0.092553854 0.14181583
0000b0 94 02 97 3d 59 36 37 be a0 9a 21 3e 1a f6 fb 3d
       0.073735386 -0.17891826 0.15781641 0.123027995
0000c0 04 54 d5 bc d3 cd 68 3d ca 89 0e be f2 01 9b bc
       -0.026041038 0.056836914 -0.1391975 -0.018921826
0000d0 dc 10 c3 bd 79 f5 17 ba 38 67 7b 3c 14 40 b1 3d
       -0.095247 -0.0005796771 0.0153444335 0.086548
0000e0 63 cc c2 bd 57 56 6a 3e fb 91 a6 3d bf da b7 3d
       -0.0951164 0.22884499 0.08133312 0.089772694
0000f0 1d 41 16 bd 5b c7 cc bd fd 89 0c 3e 3f 37 78 bd
       -0.03668319 -0.099989615 0.13724513 -0.06059956
000100 3e 0a 8e 3a f3 9d 3d 3d f7 7e 97 be f0 16 31 bb
       0.0010836793 0.04629321 -0.29589054 -0.0027021728
000110 fb 29 06 3d fc 42 bf bd 2d 53 62 3b 96 f6 6e bd
       0.03275488 -0.09338948 0.003453444 -0.05834063
000120 89 e2 29 be 72 eb 43 3e 18 aa d5 bc 31 dc e5 bc
       -0.16590323 0.19132784 -0.026082084 -0.028059097
000130 63 05 45 bd 3b 46 52 bd af 26 dc bc b4 23 00 bc
       -0.04810084 -0.05133651 -0.026873915 -0.007821012
000140 f5 d4 fe 3c 36 43 9c 3c 30 8f bd 3d 3b 81 25 be
       0.031107405 0.019075017 0.092558265 -0.16162579
000150 c3 05 8e bd bf b1 2c 3e 4a 81 87 bd e6 74 c5 3d
       -0.06934693 0.1686468 -0.06616457 0.09641437
000160 ba 2f 3e be 2d 61 e3 bb f1 dc 9c bd 27 68 4e bc
       -0.18572894 -0.0069390745 -0.07659329 -0.012598074
000170 24 e5 4e 3d cc 7d c3 3d 5f bf 08 3e 86 a5 80 bd
       0.050511494 0.09545478 0.13354252 -0.06281571
000180 6f 67 7e bc e6 90 03 be 3e 52 ff 3c ac 17 bc 3c
       -0.01552759 -0.12848243 0.031167146 0.022960506
000190 31 26 5d bd f2 0d 49 3e e3 70 24 3e e8 36 53 3d
       -0.0539915 0.19634226 0.16058688 0.051566035
0001a0 16 7e 72 bd 44 6e a0 3c bc 65 16 3e bb ce 43 be
       -0.059202276 0.019583829 0.14687246 -0.1912183
0001b0 51 58 57 bd 6e c1 9b bc 55 e7 b4 bd 7c 50 ae bc
       -0.05257446 -0.019013133 -0.088331856 -0.021278612
0001c0 d3 fc 01 3e fe da 9f 3d db 18 e4 bc 18 ba b8 3c
       0.12694101 0.07805441 -0.027843883 0.022549674
0001d0 0b 34 7d 3d 8c 84 c0 bc db c5 b8 bd 9f 23 46 bd
       0.06181721 -0.023500703 -0.09022113 -0.048373815
0001e0 d2 76 a2 3d 2e b0 20 3c c7 50 f7 3b 4d 5b ec 3d
       0.079328194 0.0098076295 0.007547471 0.11540852
0001f0 43 64 ce 3d 76 ea d0 3d 57 7a 2b bc 6a ba c8 bd
       0.10077717 0.1020097 -0.01046618 -0.09801181
000200 3d 07 b2 3d 32 12 b7 bd 5e 15 98 3d 15 dd 8e bc
       0.08692787 -0.08939017 0.074259505 -0.017439405
000210 24 db 96 3d d2 28 9a 3d 4a 73 93 bd e0 fb 76 3c
       0.073660165 0.07527317 -0.07199724 0.0150747
000220 39 6f f5 3c 7f 05 e7 3c d3 97 9d bc a1 fd 77 bb
       0.029960262 0.028200863 -0.019237434 -0.0037840384
000230 49 40 e4 3d 03 71 29 3d 89 cd 5d 3d 7e 5d 88 3d
       0.11145074 0.041367542 0.05415109 0.06658457
000240 3c 34 17 3c 72 20 01 3e 66 ed 2b 3d 60 a5 e0 bc
       0.009228762 0.12610033 0.041974448 -0.027422607
000250 47 24 94 bb 02 a7 b2 3b 02 d7 84 bd d4 a7 20 3e
       -0.004520926 0.005452038 -0.06486322 0.15689021
000260 c6 c7 4a bc 33 b8 c2 bc 7c 60 4f be 3e a7 66 3c
       -0.012376731 -0.023769474 -0.2025165 0.01407796
000270 70 7b aa bd da ac 43 3d 6c 20 54 3c d6 b2 33 be
       -0.08324325 0.047772266 0.012947183 -0.17548689
000280 a3 07 98 bd 83 b1 46 be 40 1d 8f bd 0d e9 72 be
       -0.074233316 -0.19403653 -0.06988001 -0.23721714
000290 61 cd b0 3d f6 a4 4f 3e 10 f7 84 3d 19 97 3a 3d
       0.08632923 0.20277771 0.06492436 0.045554254
0002a0 f4 cd b8 bd 27 c1 c1 3d bd 2b 72 3d 03 37 28 bd
       -0.090236574 0.09460669 0.059123743 -0.04106809
0002b0 76 0d 04 3e f7 6f ee 3d 5e 8f a3 bd 51 1d 48 3e
       0.1289576 0.11642449 -0.079863295 0.19542433
0002c0 14 fc 71 bd 66 9e 64 3d a1 4c bd bd 87 e8 1b bd
       -0.05907829 0.055815123 -0.092431314 -0.038063552
0002d0 8a e4 c0 bd 40 e6 68 3d d8 83 74 3c 4e 10 4e bd
       -0.0941859 0.05686021 0.014924012 -0.050308518
0002e0 7f 40 21 be 98 06 de 3d 6f 20 06 3e 84 92 1a 3e
       -0.1574726 0.108411014 0.1309831 0.15094954
0002f0 02 10 52 3d 9c 07 a5 bd c5 e8 ca ba 3c 5e 18 bd
       0.051284797 -0.08058092 -0.0015480748 -0.037199244
000300 f2 e5 d2 3d 13 07 98 bd 34 4c bc bd 37 5f a5 3d
       0.10297765 -0.07423224 -0.09194222 0.080748014
000310 68 28 a7 3c 30 28 ad 3d 9a 05 28 bd 09 e9 a7 bd
       0.02040501 0.08454931 -0.041020967 -0.08198745
000320 fe e5 43 be c1 cb 81 3d 68 83 90 bd 9f f8 dc bd
       -0.19130704 0.06337691 -0.07056314 -0.10789608
000330 f3 ae f3 bd a6 cc 07 be cf 1b 54 be 25 d4 d3 bc
       -0.11898603 -0.13261661 -0.20713733 -0.025857994
000340 e1 e4 d5 3c 07 57 a8 3c cd 0e 1d 3d b0 80 e7 3c
       0.026110115 0.02054931 0.038344193 0.028259605
000350 fc 30 40 3d b8 3e 3e bd ba 99 3f bd 15 ae 32 be
       0.046921715 -0.046446532 -0.046777464 -0.1744922
000360 88 ab fb bd b1 3a 44 bc b9 9f 26 bd 36 c1 08 3d
       -0.12288576 -0.011976884 -0.040679667 0.033387385
000370 15 09 87 3d a0 b7 23 3e b1 fc 11 3e 62 53 0a be
       0.06593529 0.15988016 0.1425655 -0.1350837
000380 de 71 45 3c 34 7a ca bd d8 91 2d bd 91 b2 e8 bd
       0.012051074 -0.0988659 -0.042375416 -0.11362184
000390 91 35 89 3d 97 f1 f7 3c 99 bc dc bd 40 5a a8 3b
       0.0669967 0.030266566 -0.1077816 0.0051377118
0003a0 51 6f 01 3e d9 da 24 be 51 8a c3 3c 1c 37 03 be
       0.1264012 -0.16099109 0.023869665 -0.12813991
0003b0 d0 e1 8a bd b8 e3 19 bd cd 09 4a bd 8b 56 a9 bd
       -0.067813516 -0.037570685 -0.049325753 -0.0826846
0003c0 d0 a1 a0 bd 16 ee fd bd 36 29 cb 3d a1 f0 32 be
       -0.07843363 -0.12398927 0.0991997 -0.17474605
0003d0 af ca 08 3e c3 d5 42 be 15 2a dd bb 47 bb bd 3c
       0.13358568 -0.19026856 -0.0067494013 0.02316059
0003e0 ad 09 91 3c 9c 21 30 3d bd 4f 6a 3d 48 87 07 be
       0.01770481 0.043000802 0.05720495 -0.132352
0003f0 28 c9 8c bd 76 b1 a9 3c ce 0f 75 bd 0e ae 02 be
       -0.06874305 0.020714503 -0.059829526 -0.12761709

weight f4 [128, 256]
000000 b3 7d bc 3d d9 2c 3e bd ec 9e 23 be f5 d9 d6 bd
       0.09203663 -0.04642949 -0.15978593 -0.10490791
000010 0f d7 f4 3d 01 ba 9d bd df f9 88 3d a3 a4 01 be
       0.11955082 -0.07701493 0.06688284 -0.1266046
000020 17 21 7e 3c 07 ed d0 3d 9b c7 d4 bc 66 21 07 3d
       0.015510819 0.102014594 -0.025974086 0.032990836
000030 42 a9 b8 bd 93 53 83 bd fb 65 a0 bd 74 33 d1 bd
       -0.09016658 -0.06412425 -0.07831951 -0.10214892
000040 5a 02 ed bc ca 93 8d bd a0 1e 4a bd 21 79 76 3d
       -0.028931785 -0.06912954 -0.049345613 0.06017411
000050 9d c6 76 bd 75 e0 08 3d 8a cc ed bb ac f9 e8 3c
       -0.060248006 0.033417184 -0.007257049 0.028439365
000060 71 c7 00 bd ac 76 ba 3c b7 a6 c8 bd 47 ce b5 bd
       -0.031440202 0.022761665 -0.09797423 -0.08877235
000070 b8 a4 03 3d c7 52 e9 bc 15 1a d7 3c cf cb 23 3c
       0.03213951 -0.028481854 0.026257554 0.009997322
000080 f9 3d 70 3d da 0c 42 3d b8 20 ad bc 3c 0c 87 b9
       0.05865285 0.047375537 -0.021133766 -0.00025758322
000090 c2 1d b8 bc b7 65 af bd 20 1c 4b 3d fc 0b f7 bc
       -0.022475127 -0.085643224 0.04958737 -0.030157082
0000a0 fa 69 ab bc d8 3a 78 3d d9 46 0f bd 42 8b cf 3d
       -0.020924557 0.060602993 -0.034979675 0.10133983
0000b0 9f 25 c6 bd 98 ad 95 3d 23 38 99 3d 30 fd 8e 3d
       -0.096751444 0.07308501 0.0748141 0.069818854
0000c0 2a 72 1c 3d 78 78 f2 bc 16 c9 d1 3c 5d 97 08 3d
       0.038194813 -0.02959846 0.02560858 0.033347476
0000d0 1b 5c 99 3b c4 aa 62 bd a9 68 58 bd 9a 6b 66 bd
       0.0046801693 -0.055338636 -0.052834187 -0.05625496
0000e0 a2 e4 a0 bb 00 6c d6 bc 27 88 31 bc db 42 17 be
       -0.0049100677 -0.026174545 -0.010835684 -0.14771597
0000f0 9f 98 f3 bc 71 59 28 bd 41 17 62 3d 39 05 51 3c
       -0.029735861 -0.041100923 0.055197958 0.012757593
000100 3e 12 92 bc 3c 6e 85 3c 41 36 8b 3d f1 e1 8e 3d
       -0.017830964 0.016287915 0.067974575 0.06976689
000110 75 b1 d3 bd c1 ea 61 3d 8a bc 27 3e 19 09 ce bc
       -0.103365816 0.05515552 0.16380516 -0.025150822
000120 d6 10 e7 3d 82 ba 90 bc db 05 b9 bd 97 b8 e3 bd
       0.11282508 -0.017667059 -0.0903432 -0.11119192
000130 1c da d5 3c 06 b9 e8 3d b4 64 2a 3d cc 20 cd bc
       0.02610498 0.113634154 0.041599944 -0.025040053
000140 1f 8b 0d bc 14 36 09 bc e6 51 48 bd 52 e4 f1 3d
       -0.008639126 -0.00837471 -0.04890623 0.11811127
000150 2b e0 6c 3d a1 34 c1 bc 08 70 88 bd d8 4b 09 be
       0.05783097 -0.023584666 -0.06661993 -0.13407838
000160 70 07 4f 3d 58 74 cf 3d 4e 9b 37 3e 3b f3 d1 3d
       0.050544202 0.10129613 0.17930338 0.10251471
000170 f3 b8 e4 bd 9d 1d b7 3d af 02 3f 3d ea 7e 91 bd
       -0.11168089 0.08941195 0.04663342 -0.07104285
000180 1f f8 c6 bc 25 d4 ef 3d ec 19 95 bd a1 69 b5 bc
       -0.024288235 0.11710385 -0.07280335 -0.022145094
000190 db 9e de 3c 3b cf d2 bc 9b 0c 85 bc 10 8d d0 3d
       0.027175358 -0.02573358 -0.016241362 0.101831555
0001a0 f5 77 c8 bd 76 cb d6 3c d5 59 8f 3d d1 12 13 3d
       -0.09788505 0.026220065 0.06999556 0.035906617
0001b0 a1 12 31 bc 59 ea 21 3c d0 69 85 bd 57 c6 93 3d
       -0.010807664 0.009882533 -0.06514323 0.07215565
0001c0 05 b9 d3 3c f4 7f 2d bd 72 4f ec 3b 16 b6 75 be
       0.02584506 -0.042358354 0.007211619 -0.23995242
0001d0 97 74 cd 3d 52 2d d9 bd 84 9b 86 3c 5d c4 a1 bc
       0.100320034 -0.10604347 0.016431578 -0.019746954
0001e0 fc 0e 45 3d 20 69 8f bd f6 a1 a1 3d fe 59 80 bc
       0.048109993 -0.07002473 0.0789222 -0.015667912
0001f0 fd a7 70 3e 17 07 c9 bc ff 29 31 3d 04 0c 27 bd
       0.23501582 -0.024539514 0.04325294 -0.040782943
000200 bb b5 2f bd db 86 fa bc c1 7a 18 3d 18 f8 e2 3c
       -0.04289792 -0.030581882 0.037226442 0.027706191
000210 8c 2c 96 bd d2 d8 fb 3c e7 d6 e6 3d 62 7b a5 bd
       -0.073327154 0.030743036 0.11271458 -0.08080174
000220 0a c0 85 3d 09 99 1f 3c 34 59 d9 3c 01 13 e4 3c
       0.06530769 0.009741076 0.026531793 0.027841093
000230 8d f8 74 3d 5c 2d 4f 3d da 53 b8 3d 3c e4 da 3d
       0.05980735 0.050580367 0.090003684 0.106880635
000240 db a6 36 bd 85 f0 fb bd f2 db 0e 3d 16 ea 79 bd
       -0.04459272 -0.12301735 0.034877725 -0.061014257
000250 38 ed 51 3d 22 bf da 3d 77 6c 59 bd 0f eb a9 bd
       0.05125162 0.10680987 -0.053081956 -0.08296787
000260 2f 60 c1 3d be 8b 4e 3d 23 38 59 bc ff f8 85 bc
       0.09442174 0.050426237 -0.013258013 -0.016354082
000270 28 9d a0 bc 3d 59 f7 bb cd 5c 06 be 75 78 68 bc
       -0.019606188 -0.00754848 -0.13121338 -0.014188875
000280 2b 28 b0 bd cd 47 be 3d 23 6a 09 3e 4f 8e 1a be
       -0.086014114 0.09291039 0.13419394 -0.15093349
000290 80 72 de 3c d5 2e 95 3d 08 fa 97 bd 58 d5 94 3b
       0.027154207 0.07284323 -0.074207366 0.004542034
0002a0 94 35 ca 3d bf 30 80 3d ce ae 54 3c 71 f6 80 3d
       0.098735005 0.062592976 0.01298113 0.06297005
0002b0 e7 ed 79 3d 72 3d 6d 3d 21 41 11 3d 24 5b 45 bd
       0.061017897 0.057919927 0.035462502 -0.04818262
0002c0 c3 eb 03 3d 63 10 8b bb bb 0b e4 3d aa 1b ab bd
       0.03220726 -0.004243897 0.1113505 -0.08354886
0002d0 f8 c4 33 3d ad 52 80 bd 99 b8 e4 bd 4b d3 01 3d
       0.043889016 -0.06265769 -0.11168022 0.031695645
0002e0 96 13 7c bd 58 c4 23 3e 01 8b c2 3d 4c 73 82 3d
       -0.061542116 0.15992868 0.09499169 0.063696474
0002f0 4e 6a 0b be b0 a5 c6 3c 51 80 b5 3d 9b 4c 50 bd
       -0.13614771 0.024248928 0.08862365 -0.050854307
000300 b7 39 ca 3c 3a e1 ca bd 74 55 38 3c 03 ec c4 bd
       0.024685724 -0.0990624 0.011250842 -0.09615328
000310 8c e6 c9 3c ff d0 7f bc fa 15 9f bd 75 79 b1 3d
       0.024646066 -0.015613793 -0.077678636 0.08665744
000320 ad 4a c9 bd 0d c9 65 bd 98 7b fa 3d fa b0 15 bd
       -0.098286964 -0.05609994 0.12230605 -0.03654573
000330 92 79 cd bc b1 e4 45 3c 66 dd 23 be 40 bf af bd
       -0.025082383 0.01207845 -0.16002426 -0.085814
000340 de e8 0e bd d0 6c d1 bb 8c 85 c2 bc f9 9b 70 bc
       -0.03489005 -0.0063911453 -0.02374532 -0.014685624
000350 37 9a 46 bd fb 7c 45 3d c1 e0 44 3d b4 3b 75 3d
       -0.048486914 0.048214894 0.048065905 0.05987139
000360 14 e1 1a bd 39 96 a2 bd e7 5c 33 bd 70 57 0c bd
       -0.037812307 -0.07938809 -0.04378977 -0.034263074
000370 1b 0e 4d bc 01 37 a1 3c b2 0d c4 3d cf 76 d2 3b
       -0.01251557 0.019679548 0.09572925 0.0064228545
000380 57 b2 3c bd d0 53 af bd 2b c7 41 3d 4e e6 b7 bd
       -0.046068516 -0.08560908 0.047309082 -0.08979474
000390 7c 1d 3e bd 3a e7 da 3d 61 1e 83 bd 31 96 fb bc
       -0.046414837 0.10688634 -0.06402279 -0.030711265
0003a0 48 4b c0 3d 61 7e e8 bd b8 dc a0 bd ab fa 71 bc
       0.09389359 -0.1135223 -0.07854599 -0.014769237
0003b0 c2 3c 8f 3d 44 a2 aa bd 6a ba 85 3d 5d ab 10 bd
       0.069940105 -0.08331731 0.06529696 -0.035319675
0003c0 11 f7 b8 3c fa 1b 69 bc c5 86 06 bc 12 76 45 be
       0.022578748 -0.014227862 -0.0082108425 -0.19283321
0003d0 bc f0 cd 3c 45 29 11 3c 91 2c ab bd 95 1c e9 3d
       0.025139205 0.008859937 -0.0835811 0.11382405
0003e0 8b 9b dd bb 80 e1 76 3b 89 03 15 3c d0 60 c0 3d
       -0.006762927 0.003767103 0.009095081 0.093934655
0003f0 96 97 e8 3d 44 a6 01 bd 9e f0 33 bc cd 1d eb 3d
       0.11357038 -0.031652704 -0.010982661 0.114802934

bias f4 [128]
000000 32 e9 e8 3b 2e 4d cf bc 24 81 d0 bd a2 15 d4 bd
       0.007107877 -0.025305357 -0.101808816 -0.10355689
000010 46 43 a6 bd 8b 1e 9a bd 1a 73 84 bb c7 c1 10 bb
       -0.081183 -0.07525357 -0.0040420415 -0.0022088157
000020 f6 05 4e 3c 4b f4 18 3e 1a ea 5b 3d f3 02 02 bb
       0.012574663 0.1493694 0.053690054 -0.0019838184
000030 bb 16 c2 3c f0 30 00 ba 7d 80 81 bd 7b e9 25 bd
       0.02369248 -0.0004890105 -0.06323335 -0.040505867
000040 c6 8b 20 3c 44 92 55 3c a4 96 27 3e ea 29 2f 3e
       0.00979895 0.013035361 0.16366059 0.17105833
000050 28 f8 89 bd 92 9e 99 be 29 94 f7 3c 46 74 74 3c
       -0.06736785 -0.30003792 0.030222015 0.0149203
000060 61 fa fa 3d 99 42 0c bd c0 e6 12 3d e5 43 bc bc
       0.12254787 -0.0342432 0.03586459 -0.022981593
000070 9b 4d 71 3d 09 5a d4 3c ff ae 2a bd 0d 32 c2 3d
       0.0589119 0.025921838 -0.041670796 0.09482203
000080 a4 de a7 3c a4 e0 82 3d c9 ce 44 3d 1e 34 0c bb
       0.020491906 0.06390503 0.04804877 -0.002139337
000090 e9 db 29 bd 14 2b 74 3c db 6f 6e 3c 76 2f 82 3c
       -0.04146949 0.014902849 0.014553036 0.015891772
0000a0 60 e1 41 3d 6f 86 12 3c e9 3c 06 3e f9 fb a6 bd
       0.047334075 0.008943184 0.13109173 -0.08153529
0000b0 9c 7c 99 3c 49 2c 45 3d a1 32 a2 3d 51 8a a8 ba
       0.018736176 0.048137937 0.07919813 -0.0012858604
0000c0 9a 87 00 3e 4a b7 09 bc 65 bf 16 bc 4f ff 61 be
       0.12551728 -0.008405516 -0.009200905 -0.22070049
0000d0 d0 17 a2 3d a8 ef dc bd e4 a9 38 3d 2d 3c 24 bc
       0.07914698 -0.10787898 0.045083895 -0.010024113
0000e0 41 e0 9f 3c 2f fe 86 3c 29 60 fc bb 12 92 cd 3c
       0.019516112 0.016478626 -0.007701893 0.025094066
0000f0 fe 57 10 3d 95 88 b0 3d 5d b1 16 be db fa 67 3d
       0.035240166 0.08619801 -0.14716096 0.05663572
000100 09 84 cb bd eb f1 8b bc ad 28 8b 3e e3 86 c8 bd
       -0.09937293 -0.017083129 0.2717947 -0.097913526
000110 ec 78 ad 3d 5b ad bc 3b fb 29 41 3e 7f 13 3f be
       0.0847033 0.0057579703 0.1886367 -0.18659781
000120 89 6d 1f 3e 21 09 0c 3d 87 7a 0f be da 21 de bd
       0.15569128 0.034188394 -0.14011584 -0.108463004
000130 7e 41 f2 3c 27 9a dc 3b 10 11 91 bd 79 da f8 bd
       0.029572245 0.0067322436 -0.070833325 -0.12151045
000140 45 37 45 38 7e 27 09 be 78 3a a4 ba e5 9d 40 be
       4.7019934e-05 -0.13393971 -0.0012529632 -0.18810232
000150 e7 2f c2 bd 19 30 6c 3d 4e 27 a7 bd d4 e1 06 bd
       -0.09481793 0.057663057 -0.08161794 -0.03293021
000160 b8 81 fa bd 4b 1c 73 3c 15 46 22 3e de da 31 bd
       -0.12231773 0.014838289 0.15847047 -0.04342162
000170 52 f0 7d 3c 66 8c 6b 3d b8 62 dd 39 58 66 d7 3c
       0.015499191 0.05750694 0.00042225956 0.026293918
000180 ab ef 50 bd 8e f9 10 3e f0 90 88 3c 5c ad e0 3c
       -0.051009815 0.14157698 0.016670674 0.027426414
000190 e3 2d 69 3d 06 e6 59 bd db 5f 91 3d ba 07 69 bd
       0.056928527 -0.053197883 0.07098361 -0.056892134
0001a0 00 28 31 3e ed 11 06 3d 3f 0b b4 bd 01 7e f9 3c
       0.17300415 0.03273194 -0.087912075 0.030455591
0001b0 e2 e9 23 3d c9 cc 1c bd 68 2b 24 be 84 65 bd bc
       0.04001797 -0.038281236 -0.16032183 -0.023119695
0001c0 51 22 88 3d 3c a1 91 3d f6 dd 2d bd bf 5d df 3d
       0.0664717 0.07110831 -0.042448007 0.109065525
0001d0 23 b4 47 3c 47 51 d2 bd 43 f2 58 39 52 ca 74 3c
       0.012188944 -0.10269409 0.00020689615 0.014940815
0001e0 e4 e5 d3 bc e2 25 8f 3d 88 35 b0 3d 4a c7 c0 bd
       -0.025866456 0.069896474 0.0860396 -0.09413011
0001f0 01 59 09 3d 69 76 b3 3c 2d e8 b9 bd 12 66 47 bd
       0.033532146 0.021907048 -0.09077487 -0.048681326

weight f4 [3, 128]
000000 14 be d0 bc ad 8e 77 3d 9c 5d c2 3a 93 48 ce 3c
       -0.025481261 0.0604388 0.0014828923 0.02518109
000010 11 a8 91 3d 5e 5d 05 3d 8f 0d 88 3d 36 fb 03 3e
       0.07112134 0.032559745 0.06643211 0.12888798
000020 38 dd 9e 3d 3a 0a 2b 3c 12 a6 c9 bd ce e7 97 bc
       0.07757038 0.01043945 -0.098461285 -0.01854315
000030 d9 8e 98 3c 1e 74 25 bd d2 74 88 ba e3 38 cd 3d
       0.018622803 -0.04039394 -0.0010410792 0.10020616
000040 b3 7d 90 3d ad 9b bb 3c 56 32 fd 3c 5d a8 63 bd
       0.07055225 0.02290138 0.030907791 -0.055580486
000050 85 f3 71 3c e3 a9 fc bd 51 2d a8 bd 0a 2e 85 bb
       0.014767532 -0.12337091 -0.082117684 -0.004064326
000060 ec f3 c8 3d a6 bc 30 3c bc 15 98 3c 22 19 8c bd
       0.098121494 0.010787165 0.018565051 -0.06840731
000070 84 5b db 3a 14 2b 10 bc 1b 87 55 bc 0c b2 c4 3c
       0.0016735648 -0.008799333 -0.0130327 0.02401068
000080 25 df 8a bd 0f 67 21 3d b6 d8 b4 bd 60 f1 c3 3d
       -0.06780843 0.039404925 -0.08830397 0.09567523
000090 40 71 92 bd e4 33 e7 ba 4a b5 1d bc 57 65 43 bc
       -0.07150507 -0.0017639366 -0.009625742 -0.011926017
0000a0 0d 6b 0d be de 53 4b bd a7 3f 8f 3d ff 80 a4 3c
       -0.13810368 -0.04964053 0.069945626 0.020081041
0000b0 98 54 b7 bc 69 3a 9b bc a0 7d 8f 3e e7 4c 69 3d
       -0.022379205 -0.01894875 0.28025532 0.056958105
0000c0 38 2f aa bc 99 3a 3d 3c 2d f0 38 b9 66 9d 3a be
       -0.020774469 0.011549615 -0.0001763708 -0.18224105
0000d0 ee ac 27 3d 08 da 58 bc 4b d8 9b 3d c9 67 ea 3d
       0.040936403 -0.013235576 0.07609614 0.11445577
0000e0 9a b7 59 bb 21 bf d5 3c c4 f6 5d bb 57 22 44 3d
       -0.0033221007 0.026092114 -0.0033869008 0.04788431
0000f0 0f 6e d4 3c 1a 2a a8 3d 66 c5 18 be 86 3e ab bc
       0.025931386 0.08211155 -0.14919052 -0.020903837
000100 6f 37 b1 3d 84 6d d9 3c c7 63 d6 3d e4 d9 b6 bd
       0.08653151 0.026541479 0.1046825 -0.08928278
000110 88 48 33 3d e4 3e b0 3b 39 00 2b 3e 43 c3 e4 bd
       0.043770343 0.005378591 0.16699304 -0.11170056
000120 58 0d a9 3d 7c 33 43 bd 6d 27 01 be d6 8d 75 3d
       0.08254498 -0.04765652 -0.12612696 0.05994972
000130 a2 f6 9d 3d a6 30 0a 3d 9f f3 51 3b 0c cc 15 3e
       0.07713057 0.0337378 0.0032036079 0.14628619
000140 42 4b 1a be dd 8c 8f 3c 6a 9d a8 bd f8 f1 d3 bd
       -0.15067771 0.017523224 -0.08233149 -0.10348886
000150 9b c0 c4 bc 8a 74 29 3d 63 44 12 be 32 c3 aa bd
       -0.024017623 0.041370906 -0.142839 -0.08338012
000160 e2 17 4e 3d 2d f5 fb bc e7 49 26 3e e5 eb 4a bb
       0.050315745 -0.030756557 0.16239129 -0.0030963358
000170 9b 0b c8 bb 96 66 54 3e 05 af a2 3d dd f1 62 bc
       -0.006104899 0.20742258 0.079435386 -0.01385161
000180 c6 d2 c5 3c e8 ed f8 3b 1a ba a4 bb 6f 93 3a bd
       0.024148356 0.00759672 -0.005027068 -0.04555076
000190 af 60 87 bc cb 8a 99 bd fa 97 87 3c 03 31 60 3d
       -0.016525595 -0.07497176 0.01655196 0.05473424
0001a0 73 ff 2f be 75 b7 4c bd 30 9c c6 bd e2 cb a8 3d
       -0.1718729 -0.049979646 -0.09697759 0.082420126
0001b0 68 93 df 3d cf 7e 16 bd af 6f 64 bd 9c e4 4a ba
       0.109167874 -0.036742028 -0.055770572 -0.0007739754
0001c0 bb a5 96 bb 68 8c 21 3c e4 28 f7 bd fd 25 dd 3c
       -0.0045973933 0.009860136 -0.12068346 0.026995653
0001d0 e8 9a 0e bb be 9c 93 3c e1 bc 0d 3e 0d 01 21 ba
       -0.0021759812 0.018019076 0.13841583 -0.0006141819
0001e0 03 ae f7 bd 56 bc 81 3e d7 36 41 3e f5 03 f1 bd
       -0.12093737 0.25339 0.18868576 -0.11768333
0001f0 27 ad ba 3c 87 e7 c5 3c e9 e4 ff bc e2 b8 66 bd
       0.022787644 0.024158252 -0.031237083 -0.05632866
000200 8e 3d 17 bc a4 70 0c 3d d5 70 0c bd d0 c8 2a be
       -0.009230984 0.03428711 -0.034287293 -0.16678166
000210 77 6a dd bc 90 cf 31 3e 87 f0 14 be a0 e3 17 3d
       -0.027028305 0.17364335 -0.14544879 0.037082314
000220 29 33 77 bb 1f dc 64 3d 5a fc 80 3d 7b f9 32 3d
       -0.0037719703 0.055873986 0.06298132 0.043694954
000230 31 fb 51 bc 31 04 a6 3b bf 7b 99 3b ae cd 2e bd
       -0.012816236 0.0050664176 0.004683941 -0.04267662
000240 64 66 e3 3c 5a d1 2a bd 1a 99 cf 3c f6 dc f3 3d
       0.027758785 -0.04170356 0.02534156 0.11907379
000250 00 09 ab 3d 17 61 51 bd 40 d1 8a bd 45 14 9c 3d
       0.08351326 -0.051117983 -0.067781925 0.076210536
000260 44 e2 ba 3c 76 89 3a be 17 3a ad bd 3d cd e4 3d
       0.02281297 -0.182165 -0.084583454 0.111719586
000270 e5 c6 0f bc 51 c3 91 3c 22 66 d2 3b d3 8b 97 bb
       -0.0087754475 0.01779333 0.0064208666 -0.0046248226
000280 0e 9f 51 3c b2 4b 21 bd 5b 3a 27 bd 69 7c 49 bd
       0.012794269 -0.03937883 -0.040827136 -0.049190912
000290 b3 6b 4d 3c de e9 b2 3c 5e 16 87 bc 25 51 17 bc
       0.0125378845 0.021840032 -0.016490158 -0.009235655
0002a0 c1 bc 82 bc 13 85 f5 bd 01 c0 b1 3d 94 e4 0b 3e
       -0.015959146 -0.119882725 0.086792 0.13661414
0002b0 e7 60 6c be 76 45 92 3d 38 42 29 3c 96 1f 06 bd
       -0.2308384 0.07142155 0.010330729 -0.032744966
0002c0 9c 85 ae bd ad 28 29 3c ce 23 70 bc 4c 26 f0 bc
       -0.08521578 0.010324639 -0.014656974 -0.029315136
0002d0 62 68 21 3d 6c 0a a4 bd bd d3 06 3c 33 7e 16 3c
       0.039406188 -0.080098 0.008229193 0.009185362
0002e0 2e 26 f6 3a 87 2a e7 3b 57 b9 4e 3c 8b 82 66 3c
       0.0018779689 0.00705463 0.012617431 0.01406921
0002f0 6a 90 34 be 0a 54 98 bd 6e be d1 3d a7 31 c2 3d
       -0.17633215 -0.07437904 0.102414 0.09482127
000300 7e 56 0b 3e 1f 31 70 bc 10 97 5d bd fd b8 9f bc
       0.13607213 -0.014660149 -0.054099143 -0.019497389
000310 55 f0 67 3c 79 02 da 3d fd 26 80 bd 51 c9 31 3c
       0.014156421 0.10645003 -0.062574364 0.01085122
000320 0d 27 53 be 43 97 91 bb 29 49 34 3d 6b 08 8d 3d
       -0.20620365 -0.0044430806 0.044015083 0.06886371
000330 48 db 8f 3d 53 3e 57 bd 2d 7d ab bd 4e 75 09 3d
       0.070242465 -0.05254967 -0.08373485 0.033559136
000340 84 ad 4b 3d a4 6f c8 3c 54 9c d4 3d d7 14 5b 3c
       0.049726024 0.024467297 0.1038138 0.013371668
000350 94 41 a4 3d 14 c4 99 3c d4 5c da bd f4 e9 8d bd
       0.080203205 0.018770255 -0.10662237 -0.06929389
000360 70 28 a1 bd 94 71 89 bd 6a fe 75 bd 9b 80 8b 3a
       -0.07869041 -0.067111164 -0.06005708 0.0010643186
000370 3f 81 6f 3d 33 cd e9 bd 3a 17 c3 3d 23 8a c9 3c
       0.058472868 -0.11416092 0.095259145 0.024602002
000380 b9 18 7c 3d 91 54 dc bc f1 4e 4b 3d 03 c7 e7 bc
       0.061547015 -0.026895793 0.04963583 -0.028293138
000390 66 61 69 bd a1 b3 a5 3b bb cf ca bd 99 38 0c 3d
       -0.056977652 0.005056814 -0.09902903 0.034233663
0003a0 90 33 c8 3c b3 11 df 3c 86 3c e1 bb c9 e9 bd bd
       0.02443865 0.02723012 -0.00687367 -0.092731066
0003b0 e6 5f ba 3d e1 62 2b bc 74 14 84 3d 65 1a 16 bd
       0.091003224 -0.010460586 0.064492136 -0.036646266
0003c0 ab 13 b5 3d 34 19 4e 3b 97 22 3b 3e ee 9a 08 3e
       0.08841642 0.0031448128 0.18274914 0.13340351
0003d0 c8 40 1a bd 52 19 b8 3d 0f 7d e6 3c c0 8b 31 3c
       -0.037659436 0.089892045 0.028135804 0.010836542
0003e0 bb 67 26 be 89 34 8c 3c fd 8b 51 bd 52 1a 88 bd
       -0.16250508 0.017114894 -0.051158894 -0.06645645
0003f0 51 fa db 3d f4 3f 9e bd 36 5b 17 bd 33 ad b6 3d
       0.107411034 -0.07727042 -0.03695222 0.08919754

bias f4 [3]
000000 89 63 26 3e 38 65 c7 3c 7c a3 4b 3e
       0.16248907 0.024340257 0.19886583
